Pytroch Glove Embedding Model/model_dict.pt (torch_old, 321218 bytes, 10 tensors)

lstm.weight_ih_l0 f4 [256, 100]
000000 81 61 20 3e d1 74 1d bb 76 b1 c3 3d 66 73 29 3e
       0.15662195 -0.0024025927 0.09555332 0.16547927
000010 76 6e 2e 3e 93 36 cb bd dd 1d 4b 3e 2b e8 f4 3d
       0.17034325 -0.099225186 0.1983561 0.11958345
000020 7e 2c ca be 14 62 53 be 0d 57 bf 3e ca 4a 01 3e
       -0.3948707 -0.20642883 0.37371102 0.12626186
000030 ef f4 54 3e 5d fc 04 bd 4c 51 7c 3d c1 17 3f be
       0.2079656 -0.032467235 0.06160097 -0.18661405
000040 96 82 60 bd cf 17 a9 3e 9d ef f6 3d 49 a2 9a 3e
       -0.054812036 0.33025977 0.12057421 0.3020194
000050 02 be 11 bc 71 01 c0 3d 1c 66 e1 3e 2c 2b 11 bc
       -0.008895399 0.09375275 0.44023216 -0.008860391
000060 04 32 29 be ea 1b 3b bc c6 ea 10 3c b8 6a 04 bd
       -0.16522986 -0.011420229 0.008845037 -0.032328337
000070 b2 f5 a7 3d de df 0a be 92 4c 4d be 69 6b 18 3e
       0.082011595 -0.13561961 -0.2004874 0.14884724
000080 8d 7c cc bd 36 0e ee 3e 5f dc 81 3d ed 8c 0b 3f
       -0.09984694 0.46495217 0.063408606 0.5451191
000090 3c b5 5e bd c3 0a 1e 3e 20 7e 78 be a2 2b 02 bf
       -0.054372057 0.15433793 -0.24266863 -0.5084783
0000a0 10 29 02 3e 5d 54 63 bd ab 1b 15 be 5c f5 8c 3e
       0.12710977 -0.055500377 -0.14561336 0.27530944
0000b0 dc e2 bb 3d cb f1 70 bd 65 79 38 3e 0f 06 26 3e
       0.09174129 -0.05882434 0.18015058 0.16213249
0000c0 bb 2b 6c 3d b2 42 18 bd 1c ab aa be 83 52 2f 3e
       0.057658892 -0.03717298 -0.3333367 0.1712132
0000d0 bb ad 7b be 3a 9d c7 3d 34 aa f8 3d 8e e2 fa bd
       -0.24577992 0.097467855 0.12141839 -0.12250243
0000e0 36 ee a0 be 1b dd 87 be dd 95 d0 3c 63 32 0d be
       -0.3143174 -0.26535878 0.025462085 -0.13788752
0000f0 c0 4c f3 3c 0e 3c fc bd 9e 7b 56 3c a5 11 0b 3e
       0.029699683 -0.12316142 0.013090996 0.1358095
000100 5e 21 42 bd 8e af ae bd 31 0f 2a 3e f8 7a 3c 3e
       -0.047395103 -0.08529578 0.16607358 0.18406284
000110 43 51 94 be 36 8f 10 3d ca 5b 68 3e 49 cb 0c 3d
       -0.28968248 0.035292827 0.22691265 0.034373555
000120 03 da e6 bd c3 79 63 be 91 91 e3 3d e7 17 02 3c
       -0.11272051 -0.22214417 0.11111749 0.007940269
000130 c9 bd 32 be d5 8e 3a bc 14 57 3c bd 9b de 83 bc
       -0.1745521 -0.011386593 -0.04598148 -0.016097357
000140 48 64 56 bd 56 44 05 3f 01 37 b4 bb 95 45 3e 3e
       -0.05234173 0.520574 -0.005499721 0.18581231
000150 62 45 9f bb 76 a4 ae bd ab 8e 9c bc 59 54 1e 3b
       -0.004860566 -0.08527462 -0.019110998 0.0024159162
000160 f5 29 c7 3e 12 85 d8 bd f4 e1 3b bd b5 7a 77 3d
       0.38899198 -0.10572256 -0.045869783 0.060419757
000170 74 4b ed bd bb b5 40 3e fa 0b 29 be 4d e0 b2 be
       -0.11586657 0.18819325 -0.16508475 -0.34936753
000180 8b 0d e2 be d4 11 12 3e 3d eb ad 3e 1a ec 8f be
       -0.44150957 0.14264613 0.33968535 -0.2810982
000190 26 4d 9b be cc d9 08 be 56 e2 e9 bd 6d 17 91 3d
       -0.30332297 -0.13364333 -0.11420123 0.07084546
0001a0 32 fb 82 bd 0e 12 a5 be 98 20 1e be 86 4a 79 be
       -0.06395568 -0.32240337 -0.15442121 -0.24344835
0001b0 f4 88 3e 3e 90 d2 b5 3d 0d 15 3d be 06 72 03 3f
       0.18606931 0.08878052 -0.18465061 0.5134586
0001c0 de 26 73 be c5 04 b3 bc 89 a9 00 bf 42 f9 ab bd
       -0.23745295 -0.02185286 -0.5025869 -0.083971515
0001d0 ee f8 28 be 0f 71 7f be 11 7a 96 be 76 96 b8 3d
       -0.16501209 -0.24945472 -0.29390004 0.09013073
0001e0 66 73 da bc 4b ec 96 be 19 71 bb bd 42 d4 28 be
       -0.026666354 -0.29477152 -0.09152431 -0.1648722
0001f0 be a0 43 be 76 a2 ed 3d 13 bd 22 bd a7 a8 fb bd
       -0.19104287 0.116032526 -0.039731096 -0.12288027
000200 b2 aa 70 bd 35 19 0c 3e b6 ce 4c be 4d 1f 5e 3d
       -0.058756538 0.1368149 -0.20000729 0.05422907
000210 f5 7b 26 bf 07 3f 0f 3f 15 b4 8e 3e 81 fc b1 3d
       -0.65032893 0.5595555 0.27871767 0.086907394
000220 ab 9c e0 3e 96 9a b5 be 5d 86 99 bd 6d 3c 13 bf
       0.43869528 -0.35469502 -0.07496331 -0.5751408
000230 db 07 16 bb 71 18 97 3d d0 5a d4 bd 46 f2 61 bd
       -0.0022892866 0.07377709 -0.103688836 -0.05516269
000240 ad c4 dc 3d a1 a5 f3 bd 82 37 8f bd a7 c0 73 3d
       0.107797004 -0.118968256 -0.06993009 0.0595099
000250 18 a3 a2 be 54 0a a0 3d fb 88 59 be d0 90 81 be
       -0.31765056 0.0781447 -0.2124366 -0.25305796
000260 9e 72 ad be 72 39 dc 3c 24 61 80 3e 9f cd e7 3d
       -0.33876508 0.02688286 0.25074112 0.11318516
000270 82 84 c7 3e a6 90 ab bd 22 34 b1 be d8 34 3a bf
       0.38968283 -0.08377199 -0.34610087 -0.72736883
000280 01 c3 03 3d 89 ed 91 bd 54 f2 74 bd 28 b6 14 3d
       0.032168392 -0.07125384 -0.059801415 0.03630653
000290 0b e7 ca bd af 7f de 3d c9 3a e0 bd 96 ce 45 3e
       -0.09907349 0.108641975 -0.109487124 0.19317088
0002a0 69 98 9d be d7 41 cc 3d 77 90 c0 3e a8 55 56 3d
       -0.30780342 0.099734955 0.37610218 0.052327782
0002b0 0c ed 3a bd 7d c2 ea 3d cd 03 35 bf 50 ab 6e 3c
       -0.04563622 0.11462877 -0.70708925 0.014567211
0002c0 f7 15 bd 3e 82 ab 6d 3e ac b2 16 be b8 07 68 bd
       0.3693082 0.23209956 -0.14716595 -0.056647986
0002d0 a6 57 91 be 94 7d e7 be bf 85 51 3e 19 22 bd be
       -0.28387183 -0.45212996 0.20461176 -0.36940077
0002e0 c5 89 48 3d 62 d5 7e 3e 0e 39 bf bd 21 77 39 3c
       0.048959512 0.24886087 -0.09337054 0.011319906
0002f0 1f 8f 02 3e 82 a8 49 3e 7d 69 e7 be 88 f5 d1 3d
       0.12749909 0.19693187 -0.4519767 0.102519095
000300 a5 e2 8b 3e 29 66 e7 be 08 03 f8 3e 22 32 cf 3e
       0.27321354 -0.4519513 0.48439813 0.40467936
000310 87 7f cf 3e d2 2b 85 bc cc 5d 8b 3c 0b 36 8d 3e
       0.40526983 -0.016256247 0.0170125 0.27580294
000320 d3 3c e2 3b 9a d2 03 3e 34 f5 54 be 49 b6 15 3e
       0.0069042235 0.12873307 -0.20796663 0.14620318
000330 b2 87 a4 bd 18 31 94 bd d6 e2 bf be 90 49 be 3c
       -0.08033694 -0.072359264 -0.3747775 0.023228437
000340 3c a8 55 3e ba 78 50 3e a1 26 cc be 9d c7 16 3e
       0.20864958 0.20358554 -0.39873222 0.14724584
000350 bc 46 9b bd 09 0e 8c 3e 5d 43 06 be f6 9c 59 bd
       -0.07581851 0.27354458 -0.13111635 -0.053128205
000360 fa c8 05 3e 52 93 41 be 33 56 89 3e bc 95 f7 bd
       0.13064948 -0.18903854 0.26823577 -0.120891064
000370 9f 95 05 be 08 42 4c be 83 e6 bd be 6f 79 0e 3e
       -0.13045357 -0.19947064 -0.3708993 0.1391351
000380 0d 5f c2 3d 7d 00 e4 3c 2b 7c a2 be b3 cc 01 bf
       0.09490786 0.027832264 -0.31735358 -0.5070297
000390 3f e9 77 3e 30 11 a2 3e 28 9b 93 3d 7b 12 15 be
       0.2421007 0.31653738 0.07207328 -0.14557831
0003a0 96 fe bb 3e e3 d3 93 3e a7 28 5e 3d d7 d4 6a 3d
       0.3671767 0.28872594 0.054237988 0.057331886
0003b0 fa 3a 76 3e db 8b b6 be 31 0c 41 3e 38 f8 cd bc
       0.24045935 -0.35653576 0.18852307 -0.025142774
0003c0 8e b4 0b bf b2 75 a0 be c1 bb b6 3e 97 d1 dd 3e
       -0.5457238 -0.31339794 0.3569012 0.43323967
0003d0 84 df c9 3d 64 0b 02 bf 83 58 18 be 58 24 20 3e
       0.09857085 -0.5079863 -0.14877515 0.15638864
0003e0 f0 19 c1 3e 25 4d 55 be 9f f0 84 be 54 36 4a 3c
       0.377151 -0.2083021 -0.2596483 0.012342054
0003f0 40 c4 12 3e 4d 11 5c bd e8 02 5c be 52 a6 80 3d
       0.14332676 -0.053727437 -0.21485484 0.06281723

lstm.weight_hh_l0 f4 [256, 64]
000000 5b e5 04 3f e2 25 ab be 0e 90 5a 3e c8 4f fb 3e
       0.5191247 -0.3342734 0.21344015 0.49084306
000010 93 7a be be 29 97 f2 be d8 d0 6d 3e 5a de 27 be
       -0.37202892 -0.4738095 0.23224199 -0.16393414
000020 d2 20 15 3d dd ee b9 3d 62 03 ea bd c9 a7 69 3e
       0.036408253 0.09078763 -0.114264265 0.22817911
000030 a6 11 d3 be ac 7e c0 3e 0f cc 87 3c aa e9 e2 bb
       -0.41224402 0.37596643 0.016576795 -0.0069248276
000040 44 8c b3 3a f6 65 7f be 0a 19 8c be 6a 72 ab be
       0.0013698419 -0.24941239 -0.27362853 -0.33485729
000050 54 38 ab bd 0d 00 87 3d 99 0b 3e be d0 d2 94 be
       -0.08360353 0.065918066 -0.18559112 -0.29067087
000060 70 4d 2c 3e 1a d0 2a bd f6 80 18 3e 5f 6e b2 3e
       0.16826415 -0.041702367 0.14892945 0.3484983
000070 47 00 76 bb 44 f0 8b 3e 08 04 d1 bd 80 7b 09 bd
       -0.0037536786 0.27331746 -0.10205847 -0.033565044
000080 52 89 37 bd 25 4c e5 bd 80 d9 ce bd bd 97 ef be
       -0.044808693 -0.11196164 -0.101000786 -0.46795455
000090 e9 74 30 bc 8c 75 70 be 07 d8 87 be bd d1 96 3a
       -0.010770061 -0.2348234 -0.26532003 0.0011506599
0000a0 71 f5 db 3e a7 b6 8b be b9 b3 a0 3e 83 34 82 3e
       0.42960694 -0.2728779 0.31387118 0.25430688
0000b0 e5 59 7f 3e 62 8d 2c 3e d7 81 84 3d ea 28 ee 3e
       0.24936636 0.16850808 0.064700775 0.4651559
0000c0 72 6a 45 bd bc 3d 42 3c 90 1e 28 bc d1 25 6b 3e
       -0.048197217 0.011855539 -0.010261193 0.22963645
0000d0 02 79 73 3e a8 c2 b0 3e fd d8 ef 3d 7d 5b 48 3e
       0.2377663 0.3452351 0.11711309 0.1956615
0000e0 b5 5c cd 3d 9d 83 8a 3e 51 8b 82 be aa 17 fc bd
       0.10027448 0.27053538 -0.25496915 -0.12309201
0000f0 8d f4 08 3e e5 6f cd 3d f5 42 14 be 06 14 2b be
       0.13374539 0.10031108 -0.14478667 -0.16706857
000100 a4 19 14 3d b5 62 58 be ad 51 ce 3d 9c cf 83 3e
       0.036157265 -0.21131404 0.10074172 0.2574433
000110 78 aa f5 bd 36 ef 1c be dd e1 b6 bd 73 cf d9 ba
       -0.11995405 -0.15325627 -0.08929799 -0.0016617611
000120 a1 04 03 bd 26 a9 a0 3e bf 56 19 3e ec 2f 30 3e
       -0.031986836 0.3137905 0.14974497 0.1720578
000130 47 42 01 be 69 88 43 3e f2 db f2 3c e0 91 09 bd
       -0.12622939 0.19095005 0.029645894 -0.033586383
000140 9b 18 9b bc 8e 92 f7 3b f7 5f 09 bb ab 85 75 be
       -0.018932631 0.0075553125 -0.002096174 -0.23976772
000150 ad 73 ff bd d9 7e 21 3d 5e 67 6c 3e 91 99 22 3e
       -0.12473235 0.039427612 0.23086306 0.15878893
000160 dc 14 49 3e 62 41 47 3d 54 d4 80 be c6 04 08 3e
       0.19636863 0.04864634 -0.25161994 0.13283071
000170 55 e4 24 be 55 51 be be 1e f2 a6 bd ab 02 e8 3d
       -0.16102727 -0.37171426 -0.08151649 0.11328634
000180 4b 68 2d bd a4 ad 54 be 5e f0 bf 3d 10 1d 32 bd
       -0.04233579 -0.20769364 0.09372018 -0.043484747
000190 05 26 d6 be b7 0e 31 3e 4d 59 3d be 09 14 df 3d
       -0.41825882 0.1729077 -0.18491097 0.10892493
0001a0 46 80 16 3e 7e 06 04 bd 46 98 a2 bd 93 b4 f7 bd
       0.1469737 -0.032232754 -0.079392 -0.12094989
0001b0 b2 80 bf 3d 59 53 a5 be 1b ad 8d bd 20 44 92 3c
       0.093507186 -0.32290152 -0.06917783 0.01785475
0001c0 a9 98 ed 3d d0 5c 1a bf c6 2b ee 3d 67 71 7d bd
       0.11601383 -0.6029787 0.11629443 -0.061875727
0001d0 bf bf 85 3d f5 2d 81 3e 5d 49 c7 be e0 14 87 3c
       0.06530713 0.25230375 -0.3892316 0.016489446
0001e0 21 14 c7 3d 21 ea d8 bc e9 1f 25 be 39 31 0a be
       0.09720636 -0.026478829 -0.16125454 -0.1349534
0001f0 93 91 99 be 94 69 8d 3e 71 8d 9c 3c 91 32 28 be
       -0.29993877 0.27619612 0.019110413 -0.1642554
000200 dd d4 de 3d e8 6f 30 be 88 9d 4b be 4d 66 b3 3d
       0.10880444 -0.17230189 -0.19884312 0.08759747
000210 66 c8 f9 3d a8 3e 0f be a2 9c 4e be 9a 69 65 3b
       0.12196426 -0.13988745 -0.20176938 0.003500557
000220 7e de 2c 3e 66 65 b4 be 5b 72 78 be 05 9a 8e 3d
       0.16881749 -0.3523361 -0.24262373 0.06962971
000230 64 f4 e5 be a7 f2 66 3e 28 70 49 bd b4 48 a8 3d
       -0.44913018 0.22553502 -0.049179226 0.08216992
000240 bf 8e 82 be 85 2d 55 bd c3 5a 07 bd d9 47 c8 bd
       -0.25499532 -0.052045364 -0.03304554 -0.09779329
000250 79 2c 13 be e8 78 9f 3d 10 95 c7 be 00 c7 6b 3d
       -0.14372434 0.07786733 -0.38980913 0.057562828
000260 7b b0 cc be 0b 99 a7 bd b2 06 27 bc 59 90 a1 be
       -0.39978394 -0.081834875 -0.010194467 -0.3155544
000270 42 cf 67 3d a1 33 93 3e 8d ef fd 3d fc 74 29 3e
       0.05659414 0.28750327 0.12399206 0.16548532
000280 a6 f6 06 3e 6e d3 0d bf 27 c7 02 3e 3c 95 a6 be
       0.13180026 -0.5540074 0.12771283 -0.32535732
000290 0a 2a b9 3d 8a 6d 0a 3e 70 28 22 bf 9d c6 28 be
       0.090412214 0.13518348 -0.6334295 -0.16482015
0002a0 2f 7c 4d 3e db 8e df 3d 9b 69 24 bd 8a fe 30 be
       0.20066904 0.109159194 -0.040139776 -0.17284599
0002b0 ba c1 6d 3d df 06 c5 be 69 8f 79 3d 59 cb 53 3e
       0.05804608 -0.38481805 0.060927782 0.2068304
0002c0 ca 44 da bd c7 3b 0e bf 21 68 31 3e 49 8f 3b be
       -0.10657652 -0.55559963 0.17324878 -0.18316378
0002d0 04 72 3d bd 9b 65 cd 3e 97 dd 57 3d d8 17 cd bd
       -0.046251312 0.4011658 0.05270156 -0.100143135
0002e0 bd 24 0e 3e 68 89 36 3f 24 e8 bc 3e ce 0c ec 3c
       0.13881202 0.71303415 0.3689586 0.0288147
0002f0 5c 1a 58 3e 6e 89 e9 3d 64 9c 60 3d 1b 32 f6 bd
       0.21103805 0.11403166 0.054836646 -0.120212756
000300 c3 7b 3f be bb 11 53 3d 42 f4 61 bd 48 ca 66 be
       -0.18699555 0.05153058 -0.055164583 -0.22538102
000310 dd 89 31 3e b9 33 3a 3e ff cf f8 bd 05 2d 9d 3d
       0.17337747 0.18183793 -0.12149047 0.076746024
000320 21 9a e5 3e 98 8d 0b bd a8 16 7a 3e 79 d0 71 3d
       0.44844154 -0.03407058 0.24422705 0.059036706
000330 8f 5b 89 be 35 5b 92 3e 2a 9b 21 bd 57 27 d5 3d
       -0.26827666 0.2858521 -0.039454617 0.10407894
000340 b0 06 1a bd a3 98 ad bb f2 05 88 bd 01 67 87 3d
       -0.037604034 -0.0052977367 -0.06641759 0.06611443
000350 d2 95 10 be 3e e5 ab 3e 12 94 95 be ef 88 1c 3e
       -0.14119652 0.33573335 -0.2921453 0.15286611
000360 f6 0d 96 3d 2e df 82 3b ee cf f7 3d aa a2 9a 3d
       0.073268816 0.0039938902 0.12100206 0.07550557
000370 6a ab 55 bd 0a d3 ae 3d 51 b9 18 3d 46 ac d4 3e
       -0.052165426 0.08536346 0.037286106 0.41537684
000380 73 12 55 bd 36 b2 24 3e 90 b1 8d 3c e4 52 8a 3c
       -0.052019548 0.16083607 0.017296582 0.016885228
000390 96 16 75 3d 0e 1f 1a bd 1c 3d 89 be 5e e1 a8 3c
       0.059835993 -0.037627272 -0.26804435 0.020615276
0003a0 17 50 a4 3c df b5 c2 3d 06 10 7a 3d 4b 05 24 bd
       0.020057721 0.095073454 0.061050437 -0.04004411
0003b0 7d a9 53 be e4 38 50 be 10 f9 a9 bd 3e 2e d4 3d
       -0.20670123 -0.20334202 -0.08299458 0.103603825
0003c0 b2 35 b7 3d ae 59 66 3e 34 5c 6c 3e 56 06 2e be
       0.089457884 0.22495148 0.23082048 -0.16994604
0003d0 51 f1 2e be 2e 21 6a 3e bf 69 10 3d 54 7e 6a 3e
       -0.17084242 0.2286422 0.035257097 0.22899753
0003e0 66 0f 8d 3e e5 21 04 3f 71 6b ff 3d 3e a2 43 be
       0.2755081 0.5161422 0.12471665 -0.19104859
0003f0 79 3e 05 be 51 ae 74 3e 5a c5 eb bd 8a 8e f1 bd
       -0.13012113 0.23894621 -0.11512251 -0.11794765

lstm.bias_ih_l0 f4 [256]
000000 a1 fd df bb 2f 7d 10 bc cd ff 01 be e9 5f 24 3e
       -0.006835655 -0.008818909 -0.12695237 0.16052212
000010 e8 50 45 bb 24 68 97 bd be 5a 48 3e 3d 78 13 be
       -0.0030108038 -0.0739291 0.19565865 -0.14401336
000020 96 2f 2f 3e 01 6e ba 3d 3c 78 df bd a8 f7 84 3e
       0.17107996 0.09103013 -0.10911605 0.25970197
000030 38 ec 90 3c 62 3a 15 3e 85 fe 08 3d a8 b8 30 3d
       0.017690763 0.14573053 0.033445854 0.043144852
000040 33 9e ab 3d 65 61 10 be f4 00 f3 bd b6 73 8d bd
       0.083797835 -0.14099653 -0.11865416 -0.06906836
000050 ec 03 c2 3d d0 82 03 bd 59 7d 12 3e 7c a9 a6 bd
       0.09473404 -0.032107174 0.14305629 -0.08137795
000060 1c 37 bb bd 08 3b 8f bd cb 7e 06 3d 30 9b 8f bc
       -0.09141371 -0.06993681 0.032835763 -0.017530054
000070 4f 3f 24 bd 11 e3 ad 3d d4 37 1d 3e 59 1e c4 bd
       -0.04009944 0.08490575 0.15353328 -0.09576101
000080 de c9 a2 bd a7 a6 b3 bb 3f 93 ca 3d 91 a8 68 be
       -0.07948659 -0.005482513 0.09891366 -0.22720553
000090 b5 fb 4b 3d 22 00 df 3c 48 6d 04 be 54 c8 7e 3c
       0.049800593 0.027221743 -0.12932312 0.015550692
0000a0 a1 99 47 bd da 6f 13 3e b5 ab 9a 3d 20 7f 9f bd
       -0.048730496 0.14398137 0.07552282 -0.07787919
0000b0 59 6e be 3b de ae 82 bd 16 f8 4e bd 92 74 28 3d
       0.0058114943 -0.063810095 -0.050529562 0.041126795
0000c0 16 00 91 3d c1 db 75 3a 02 35 da 3d 77 5e 8b bc
       0.070800945 0.0009378754 0.10654642 -0.017012818
0000d0 2e 7a 01 3e 7a 5a e5 3c 6a 6c 93 3c cc 6b 21 bd
       0.12644264 0.027997244 0.017996032 -0.039409444
0000e0 9c 1b 5a 3e 8c fc 16 3e 4d 3b 8d bd 33 07 f8 bd
       0.21299595 0.14744776 -0.06896076 -0.12110748
0000f0 2d 6f 7f 3d 72 5e a7 bd 04 db 86 3e 9b dc bb 3d
       0.062361885 -0.08172311 0.2633897 0.091729365
000100 98 f2 88 3e 8e 76 82 bc dd ec f6 3d e5 cd d9 bc
       0.26747584 -0.015925672 0.12056897 -0.026587436
000110 46 f1 0f 3e 2a e1 68 3d e8 f1 8c bc ff 4b 31 3d
       0.14056882 0.05685536 -0.017205194 0.043285366
000120 2d 0a be 3d 35 e7 43 3c 26 bb 06 3e d7 38 1c 3e
       0.092792846 0.0119569795 0.13157329 0.15256058
000130 84 b7 e2 3d ed 9c 2c bd 25 19 b5 3e 1c 92 b9 bc
       0.11070159 -0.042141844 0.35370746 -0.022652678
000140 e9 2e f3 3d c5 de 40 bd c7 c8 ec 3d 6a 0b 6b 3d
       0.11874182 -0.04708745 0.11561733 0.057383932
000150 61 58 ee 3a 9a ba e1 bc 5c c9 d9 3c bc 5e 86 3e
       0.0018184298 -0.027554799 0.026585273 0.26244152
000160 44 b5 00 3e df 3f 0b 3e 64 e5 c0 3c 91 21 68 3e
       0.12569147 0.13598584 0.023546882 0.22669055
000170 05 50 56 3e 24 8e bc 3d c5 d0 0f 3e 95 04 d7 3c
       0.20928963 0.09206799 0.14044483 0.026247302
000180 df c2 ac bd 36 dc 2f 3d a5 ae 7c bd aa 56 c7 3d
       -0.08435606 0.04293462 -0.06168999 0.09733327
000190 6e f6 b4 bc 99 0e 2e 3e 84 15 30 3e 7b bf ee 3d
       -0.022090163 0.16997756 0.17195708 0.11657616
0001a0 54 dc 89 3d ee 18 92 3d 52 47 de 3d 9f a8 a7 3c
       0.067314774 0.07133661 0.10853447 0.020466147
0001b0 f3 6e a2 3c c2 ae 33 3d 94 f7 20 3d 49 50 59 3d
       0.019828295 0.043867834 0.03929861 0.05305508
0001c0 f1 ce f5 3d 12 cf a8 bd 87 bf 1a be ba 52 18 3d
       0.120023616 -0.082426205 -0.15112124 0.03718827
0001d0 bd 48 96 3c 89 69 dd 3d d9 1c 09 3e 2a fb 87 3e
       0.018345231 0.10811145 0.13389911 0.2655881
0001e0 bc 17 89 3e 78 c7 82 bd 45 85 af bd 06 ce 24 3e
       0.2677592 -0.06385702 -0.08570341 0.16094217
0001f0 aa b6 0b be 10 6d 3c 3e a4 d9 d3 bb 83 22 75 3c
       -0.136439 0.18400979 -0.006465154 0.0149618415
000200 31 c1 22 3d e4 b0 9f 3d 25 98 8b bd 4f ae 9b bd
       0.039735023 0.07797411 -0.06816129 -0.07601606
000210 3d 8e 46 bc b2 19 88 3d 2c 82 c6 3d 5e ac 1f bd
       -0.012118873 0.06645526 0.09692797 -0.03898274
000220 85 bd 8f 3d 28 ae 01 3e a7 9f 3a bc 2b 7d 9c bc
       0.0701857 0.12664092 -0.011390603 -0.019102653
000230 44 3a ca 3c ce 58 a7 3d a7 38 3a bd ff 14 60 3d
       0.024685986 0.08171235 -0.045464184 0.054707523
000240 6b 31 22 be 69 73 da 3c 20 db 4f 3d c0 96 d6 bb
       -0.15839164 0.02666636 0.050746083 -0.0065487325
000250 f6 c5 78 bd 47 96 85 3d 35 6a c8 3d 21 43 83 3d
       -0.060735665 0.06522804 0.097858824 0.06409288
000260 82 4c fc bd 6a e3 f2 3b ce d0 bc 3d 73 0d 18 bb
       -0.1231928 0.007412364 0.09219514 -0.0023201376
000270 51 c0 cd bd 9b 46 8b 3d 91 cf eb 3c e4 36 ab bc
       -0.10046447 0.06800576 0.028785499 -0.020900197
000280 45 54 df 3d ce 86 ae 3d db cd 13 be 89 f7 8b 3d
       0.10904745 0.08521806 -0.14433996 0.06834323
000290 df 5f cf 3d 8a 25 2c 3d f2 b1 b8 bd a8 e1 77 bd
       0.10125708 0.042027988 -0.090183154 -0.060517937
0002a0 e4 53 e3 3c bc c3 cf bb c9 f8 11 3d dc 9f 84 bd
       0.027749963 -0.006340472 0.03563765 -0.06475803
0002b0 48 c8 ac bd c9 7a 79 3d e5 39 69 3c 7c 33 5f 3d
       -0.08436638 0.060908113 0.014234995 0.05449246
0002c0 97 19 9a bd a6 c7 f3 bd 8e 33 a0 3d 2a 4c aa bd
       -0.07524412 -0.11903314 0.07822333 -0.083153084
0002d0 88 28 f9 bd 06 3e 1c bc 12 21 18 bc 30 95 f6 bd
       -0.12165934 -0.009536272 -0.009285228 -0.12040174
0002e0 5d 44 0d 3e d1 e9 8c bc 7c 13 04 be 94 69 bd 3d
       0.1379561 -0.017201336 -0.12898058 0.09248653
0002f0 c9 9b ad 3d 6e 28 4d 3d 44 6d 35 3b 8e a9 ad bd
       0.08476979 0.050087385 0.0027683536 -0.084796056
000300 9b 10 b8 bd 0a 39 fe 3d 80 8f cd 3d d3 a9 cb 3b
       -0.08987542 0.12413223 0.10037136 0.006215313
000310 2c 87 d4 bc fc 26 41 3e c4 8d 29 3d 2e 01 a9 bd
       -0.025943361 0.18862528 0.041394964 -0.08252178
000320 da 5b 56 3d b1 b0 2a be 8c 48 e2 ba 39 95 a9 bc
       0.05233369 -0.16668965 -0.0017264052 -0.020701038
000330 1a 02 11 3e 5f c9 1f 3e ac 5f f9 bc 1e b5 14 3a
       0.14160958 0.1560416 -0.030441128 0.00056727405
000340 8c 3d c5 bd 26 00 3d 3d fd a5 96 3a a0 7d 56 3c
       -0.0963088 0.04614272 0.001149356 0.013091475
000350 5e 9a 0a 3e 76 4c d2 3c 76 be 23 3d 5a c4 ad 3d
       0.13535449 0.025671225 0.03997656 0.08484717
000360 24 d8 83 3d df 1f 10 bd e3 fb f9 bc b5 34 6a 3e
       0.0643771 -0.035186645 -0.030515617 0.22871669
000370 0f e8 45 3d 83 b5 ca 3d 7f 5d f4 bd c9 47 5c bd
       0.04831701 0.09897902 -0.119318955 -0.053779397
000380 3e 21 1b 3d 16 c3 8c bc 48 cd bc 3d db 26 44 3e
       0.0378735 -0.017182868 0.09218842 0.19155447
000390 4b d4 db 3d 39 e6 3d 3e ed f4 3b 3e a8 64 57 3e
       0.10733851 0.18544854 0.1835515 0.21034491
0003a0 b8 a4 31 3e a1 f1 e3 bd f0 84 4b 3e e4 dd 51 3e
       0.17347991 -0.111300714 0.1987493 0.20494801
0003b0 06 b4 1d be 39 fa 4e 3e 88 e2 8e bd 02 91 5c 3d
       -0.15400705 0.2021264 -0.06976801 0.053849228
0003c0 23 de 6f 3d 20 95 6b bd 60 79 49 be 65 ad ea 3d
       0.058561455 -0.057515264 -0.19675207 0.11458854
0003d0 1f 15 9b 3d 82 12 bc 3d d8 3f f4 3d 87 8f 92 3e
       0.07572388 0.091832176 0.1192624 0.28625128
0003e0 55 8e 99 bb 25 ee d5 3d a3 6e 71 bd 43 24 b8 3d
       -0.0046861568 0.10445813 -0.058943402 0.089912914
0003f0 c9 7d 72 bd a6 de cd 3c 94 a9 41 3e f9 1f e4 3c
       -0.05920199 0.025130581 0.18912345 0.027847277

lstm.bias_hh_l0 f4 [256]
000000 65 9c 20 bc 22 c8 50 bd 5e 40 e5 bd dc cc 25 bd
       -0.009802912 -0.05097211 -0.11193918 -0.040478572
000010 9a fe d8 3c 87 da 56 be 3a db 70 3e 52 fc 7f 3c
       0.026488591 -0.20981799 0.23521128 0.015624123
000020 50 89 89 3e 86 35 9e bd c3 49 50 bd 1b a6 84 3e
       0.26862574 -0.077250525 -0.050851595 0.25907978
000030 98 11 20 3e 03 41 31 3d f3 1e 9d 3d cc c3 94 bd
       0.15631711 0.04327489 0.07671919 -0.07263908
000040 e8 99 29 bc aa 4f 32 3c b7 98 05 be 11 f2 ba 3d
       -0.0103516355 0.010883251 -0.13046537 0.09128202
000050 6d 72 3c 3c b1 25 23 bd 57 90 cd bd 1d 62 0c 3d
       0.011501891 -0.039830867 -0.10037296 0.034273256
000060 77 56 04 be 2c 71 be 3d c5 a7 7e bd 12 aa af 3d
       -0.12923609 0.092989296 -0.062171716 0.0857736
000070 54 c9 4c bd 36 e5 ad bd 54 6f c9 ba 40 f2 8c be
       -0.04999669 -0.08490984 -0.0015368261 -0.27528572
000080 ea 2e 3d be 3f b9 d5 bd 40 a8 9e bd cf e3 90 be
       -0.18474928 -0.104357235 -0.07746935 -0.28298804
000090 85 dd b8 bd 8a d7 0e 3e 99 19 f0 bd a3 63 29 3e
       -0.090266265 0.13949409 -0.11723632 0.16541915
0000a0 43 17 2a 3d 8a 1e 54 ba 49 db 59 bc 0e 5c 1f 3e
       0.04152609 -0.0008091709 -0.013296911 0.1556246
0000b0 11 e8 3d 3d 34 15 9b 3d f7 e4 cd b9 f9 f5 a5 3d
       0.046363894 0.075724036 -0.0003927124 0.08103556
0000c0 45 39 9d bc e4 cb 3c bd 78 43 1a 3d 5f 36 a0 3c
       -0.019192347 -0.046092883 0.037662 0.019557176
0000d0 5f f7 7b 3d b2 5f db bd 55 6c cc bc bf 9a c9 3d
       0.06151521 -0.10711612 -0.024954 0.098439686
0000e0 c4 e8 f0 bc 8d 5c 29 3d 53 1a 86 3c 3a 48 c0 bd
       -0.029407866 0.04134803 0.016369974 -0.09388776
0000f0 d4 fc 04 be 03 95 98 bd 48 7a 44 3e 79 ad 0c 3e
       -0.12987071 -0.07450297 0.19187272 0.1373805
000100 4c 3f 58 3e 0d e7 73 bd c6 58 15 3e 0f 7c 97 bb
       0.21117896 -0.05954652 0.14584646 -0.0046229432
000110 01 e6 bc 3c ca 58 07 bc c2 b0 d7 bb ea c7 a2 3d
       0.023058893 -0.008260915 -0.0065823505 0.07948287
000120 3f 5f 17 bd e5 75 54 bd b0 6e 80 3d 8e 7b 83 3e
       -0.036956068 -0.051870245 0.06271112 0.25680202
000130 17 45 1e 3c 7b fd 37 3e ef 56 27 3e 5a 7c 57 3e
       0.009660027 0.17967789 0.16341756 0.2104353
000140 c2 e6 3a 3e af 3a 45 bb 62 6c 1a 3d f2 bd c5 bd
       0.1825209 -0.0030094793 0.03770102 -0.0965537
000150 5c ac 80 3d 2f 6e f1 bd 5f 19 8f 3d 0f ef 12 3e
       0.06282875 -0.11788594 0.06987261 0.14349006
000160 c2 94 bd 3c 9f d9 7c 3e 1e e2 6f bd 66 5b 74 3e
       0.023142222 0.24692391 -0.05856525 0.2386299
000170 e2 06 12 3e ed 08 8f bd 8d a9 d0 3d 16 3e 43 3e
       0.14260438 -0.06984124 0.10188589 0.19066653
000180 6c 45 92 3d a8 1e b2 3d ce 11 b1 bd f3 69 df 3d
       0.071421474 0.086972535 -0.08645974 0.1090888
000190 59 3b 4e 3d 56 70 c3 bc a6 19 df 3d 46 82 23 3e
       0.050349567 -0.023857277 0.10893564 0.15967664
0001a0 e2 1e d4 ba a0 65 67 3c db ec 8a 3d 99 a6 42 3e
       -0.001618352 0.01412335 0.06783458 0.19008864
0001b0 e9 0f 35 3d b6 40 bf bb 6f a7 82 bd 5b 5f 22 bd
       0.044204626 -0.0058365716 -0.06379592 -0.03964172
0001c0 b9 27 4a bd 64 2c 47 bd 96 16 80 3d 93 5d 12 be
       -0.04935429 -0.04862632 0.06254308 -0.14293508
0001d0 67 95 6d 3d 43 45 91 bd e4 c4 8f bd ba ea 7a 3d
       0.05800381 -0.07093289 -0.07019976 0.06125901
0001e0 83 6b 74 3e 1b 0d 3b 3c 7e 3c c2 bc 02 cc 68 3e
       0.23869137 0.011416699 -0.023710486 0.22734073
0001f0 f0 d3 fe bd 30 7e 5c 3e e9 0d 26 3e dd bb 6e bd
       -0.124427676 0.21532512 0.16216244 -0.05828463
000200 1b 81 9d bd 0c c0 bc 3c 92 60 02 bd 89 c6 e3 bd
       -0.076906405 0.023040794 -0.031830378 -0.11121852
000210 b3 e1 4a 3d c3 50 ba 3d 7c ed 3e bd d5 8d 7e 3d
       0.04953165 0.09097435 -0.0466132 0.06214698
000220 31 7c 7d 3d 72 de b6 3c 12 b1 e5 bd 5e 67 7e 3d
       0.061886016 0.022322867 -0.11215414 0.062110297
000230 0b 27 3c bd 0c e8 98 bd bb 4c 30 bc 73 72 ae bc
       -0.04593567 -0.074661344 -0.0107604815 -0.021294808
000240 95 a7 b1 bd a4 da c9 bb e6 37 e7 bb 9e 08 04 3d
       -0.08674542 -0.006160097 -0.007056224 0.03223478
000250 be a9 fe 3d 32 19 12 bd 55 1b 85 bd 2e af a7 bd
       0.124347195 -0.03566856 -0.06499354 -0.0818771
000260 9d f1 a6 3d 27 a1 06 be 48 7e b7 3d d2 50 48 bd
       0.08151553 -0.13147412 0.08959633 -0.0489052
000270 23 63 61 bd 6c 59 c2 bd 5e 69 98 bd 3b ba 66 3d
       -0.055026185 -0.09489712 -0.07441972 0.056329947
000280 d8 b7 b2 3d c6 dd fa bd 81 0d c8 3c b9 50 bc bc
       0.08726472 -0.12249331 0.024420502 -0.02298771
000290 d6 55 b6 3d dd c5 98 3d af ba dd bd 4a de 25 bd
       0.08903091 0.074596144 -0.10826623 -0.040495194
0002a0 0c b7 8c bd 46 1b 98 3d e1 70 85 3b 33 cb 39 bd
       -0.06870851 0.07427077 0.004072294 -0.0453598
0002b0 06 32 06 3d e0 c3 07 3e bd c1 b6 ba f3 14 a8 bc
       0.03276255 0.13258314 -0.0013943237 -0.020517802
0002c0 74 a9 f2 bd 0b e7 5a bd 55 6e a1 bd 93 19 14 bb
       -0.11848727 -0.053442996 -0.07882372 -0.0022598251
0002d0 99 64 c4 bc b0 ab a2 3d ae 3b 2f bd ad 2e ed 3c
       -0.02397375 0.07942903 -0.042781524 0.02895292
0002e0 83 49 ac bd 62 8e 26 ba 49 77 f1 3d d7 77 00 3d
       -0.08412459 -0.0006353614 0.1179033 0.03136429
0002f0 df 68 f1 3c 35 84 ab bb 1b fa 09 3d 01 5e ec bd
       0.029468952 -0.005234266 0.033685785 -0.11541367
000300 ee f3 00 3d fe 21 19 bd 60 56 97 3d 9b 09 97 bd
       0.03148263 -0.037385933 0.073895216 -0.07374879
000310 b9 49 c9 bd 15 fb cc 3c 4e b4 b9 3d cb a3 e6 bc
       -0.098285146 0.025022069 0.090675935 -0.028154274
000320 9d f6 0c 3e e9 23 41 bc 9c 03 ae 3d 11 3c d1 3c
       0.1376595 -0.011788347 0.08496782 0.025541337
000330 11 01 9f 3d fd 6a 3d 3e d1 15 33 3e a3 28 11 3d
       0.07763875 0.18497844 0.17488791 0.035439145
000340 ae 50 67 3d 06 ea 93 bc b8 6f 81 3d 9b 98 8f bd
       0.056473427 -0.018055927 0.06320137 -0.07011529
000350 08 60 5b 3e 0a 6d 93 3d 6b 72 0e 3d d5 90 43 3d
       0.21423352 0.07198532 0.034777086 0.047745544
000360 fa 49 12 3c 74 6f f7 3d e9 e8 d9 3d 55 ec 4c 3e
       0.00892877 0.12081805 0.10640127 0.20012029
000370 51 13 ad 3d 27 4b 08 3d 1d 9c 10 be 41 0f 18 3d
       0.0845095 0.033274796 -0.14122052 0.037123922
000380 6b eb f6 bd bd ed f0 3d dc 24 96 bb ef ba 17 3e
       -0.12056621 0.11764095 -0.0045820307 0.14817403
000390 2f a3 97 bd e5 a4 25 3e 20 b4 31 3e 9a 97 ab 3e
       -0.07404172 0.16176184 0.17353868 0.335141
0003a0 5b 47 c6 bc 45 34 22 be 00 a4 e6 3c ef 57 d7 3d
       -0.024203947 -0.15840252 0.028154373 0.10514819
0003b0 fb b1 eb bd 3c 1f 05 3e 0e 0c df bd 96 2e 21 3e
       -0.115085565 0.13000196 -0.10890971 0.15740427
0003c0 f6 87 10 be a7 01 81 3d 50 dd 1a be 57 45 70 bd
       -0.14114365 0.06299143 -0.15123487 -0.058659878
0003d0 96 e0 90 3d 03 0f 74 3e a1 8f e4 bc 5a ed cb 3d
       0.07074086 0.23833852 -0.027900519 0.099573806
0003e0 6c 4c 27 3e 01 f9 36 3d 8e 6b d3 3b 18 1b 0a 3b
       0.16337746 0.044671062 0.0064520305 0.0021073278
0003f0 46 5c ac bd 3c 56 59 3d 87 d1 65 3d 3d 0d eb 3b
       -0.08416037 0.053060755 0.056108024 0.007173209

lstm.weight_ih_l1 f4 [256, 64]
000000 16 9c b5 bc c9 5e db be be 7e a2 3e 8e 85 a5 3d
       -0.022169154 -0.42845753 0.31737322 0.08082114
000010 1c b0 e2 3d aa 65 bd be bb c6 d5 3c ac ac f0 3d
       0.110687464 -0.36991626 0.026095739 0.117516845
000020 a0 e4 ec 3d 07 f4 7a bc 47 85 a2 3e 13 ec 0d be
       0.11567044 -0.01531697 0.31742308 -0.13859586
000030 57 a6 d8 3d 83 c1 2f bc c1 87 89 3e d3 86 4d 3e
       0.10578602 -0.010727289 0.26861385 0.20070963
000040 9f 3e 1d 3d c3 4a d5 bd 9b 98 03 be b3 67 f3 bc
       0.0383898 -0.1041465 -0.12851183 -0.029712534
000050 84 23 2b 3c 6d b6 a0 3e 70 07 b2 be 8a e6 78 be
       0.010445479 0.3138918 -0.347713 -0.24306694
000060 85 d6 bf 3c f2 c3 8c 3e 06 ba ea bd 8b d3 d2 3e
       0.02341772 0.27493244 -0.114612624 0.4117702
000070 47 12 14 bd 2f d6 14 3e e4 20 3f 3d 07 26 55 bd
       -0.036150243 0.1453483 0.046662226 -0.05203822
000080 bd 88 09 3c ba b6 a6 3e 35 e5 ba 3e e3 04 02 3e
       0.008394417 0.32561284 0.36502996 0.12697177
000090 ac 9c ba bc ee 1d 90 be 7c a6 55 3e f8 ad 5b 3d
       -0.022779785 -0.28147835 0.2086429 0.053632706
0000a0 e2 2e f3 bd bf 20 0b bd a3 b7 49 bf 0b 01 a1 3d
       -0.118741766 -0.033966776 -0.7879583 0.07861527
0000b0 e7 fb 98 3d 9f e8 bd be bd 1b 4d 3e 4e 91 8e be
       0.074699216 -0.37091538 0.20030113 -0.27845234
0000c0 3a b7 57 3c 02 58 ce 3e f9 cc c1 bd ae 30 42 be
       0.013166243 0.4030152 -0.094629236 -0.18963882
0000d0 f5 ed 8e bb 07 98 92 be a9 ba b8 3e d8 3e 78 3d
       -0.004361863 -0.28631613 0.3607991 0.060606807
0000e0 cd 22 1f 3d 92 07 a5 bb f6 44 a4 be 84 79 5d be
       0.038851548 -0.005036303 -0.32083863 -0.21628386
0000f0 79 d8 af 3e 4b b1 63 be 8a 94 00 bc a1 fa ad 3e
       0.34344843 -0.222356 -0.0078479145 0.33980277
000100 bb 87 e4 3b 10 a2 32 bd ed 09 28 3e a1 9f 5a 3e
       0.006974188 -0.043611586 0.16410036 0.21349956
000110 50 29 55 3c 3a f6 f7 3d e2 86 91 3e c1 17 ed bd
       0.013010338 0.12107511 0.2842322 -0.11576796
000120 0d bc c6 3b 5b 35 93 3c 28 29 4c 3c d5 33 6a bd
       0.006064898 0.017969778 0.012460984 -0.057178337
000130 4e 9f 3a be 7d 01 2c 3e 26 87 88 3e 29 4d 3d be
       -0.18224832 0.16797443 0.2666561 -0.18486466
000140 b3 85 ee 3a 4a ac a6 be 1f 56 7a 3d 8a 00 7c 3e
       0.0018197804 -0.3255332 0.061117288 0.2460958
000150 5f 58 43 3e 21 c5 f2 3c fd 1c 53 3e 6c 6f a2 be
       0.1907668 0.029635014 0.20616527 -0.31725633
000160 00 43 89 3c 6d 7e ea 3d d2 3e 8e 3e 24 67 07 3e
       0.01675558 0.11449895 0.27782303 0.13222939
000170 de 27 8f 3e 4e 8c 96 3c 34 bb fb 3c 79 e6 35 3e
       0.27960104 0.01837745 0.030728914 0.177637
000180 19 2a c9 3d 72 41 88 3e 33 81 29 be a2 71 10 3e
       0.098224826 0.2661243 -0.16553192 0.14105847
000190 c7 b9 0a be fc 78 3f 3e 99 87 84 bd 0b 62 d3 3d
       -0.13547431 0.18698496 -0.06471176 0.103214346
0001a0 5c a4 46 3f 03 9b 97 be 90 47 4e 3e 53 a3 d8 3d
       0.7759454 -0.29610452 0.20144486 0.105780266
0001b0 8c 64 7d 3e d1 6d 3a 3c 6a 4d 2f be 0e 77 94 3e
       0.24745387 0.011378721 -0.17119375 0.28997082
0001c0 62 87 f1 be e2 78 e7 3d 36 55 ad bc 1f 25 91 3e
       -0.471736 0.113023534 -0.021158796 0.28348634
0001d0 ab dc 78 3c 89 79 06 3e 39 bf 8b 3c 78 17 60 be
       0.01518933 0.131323 0.017058956 -0.21883953
0001e0 89 94 c2 bd 07 36 bc 3d 82 43 9e bd 2d bf 29 be
       -0.09500987 0.091899924 -0.0772772 -0.16576834
0001f0 d5 2e ec 3b bb 18 75 be 1c 39 57 3e c8 52 c5 be
       0.0072077313 -0.23935215 0.21017879 -0.3853972
000200 40 21 2e 3e 58 ec 84 bb c0 18 2a 3d 22 df 14 3c
       0.17004871 -0.0040564947 0.04152751 0.009086402
000210 c7 22 15 3e d0 b2 c0 bd e9 58 03 3e 48 05 62 bd
       0.14564048 -0.09409106 0.12826885 -0.055180818
000220 37 c3 d7 bd fe fc d3 bb 15 24 cc 3e c1 71 5c be
       -0.10535281 -0.006469368 0.39871278 -0.21527769
000230 b9 5f f2 3d da ea 5a bd cd 68 ad 3d 97 b4 07 be
       0.11834664 -0.05344663 0.08467255 -0.13252483
000240 58 a6 b3 3d cb bb 26 be 86 db 78 3e d0 ae c3 3d
       0.08771962 -0.16282575 0.24302492 0.09554827
000250 ad 73 37 3e 1b aa 40 bc e6 1d 94 bd d5 5e 08 be
       0.1791522 -0.011759306 -0.07232265 -0.13317426
000260 eb f3 31 3e c8 fa 31 3e ae 43 57 3e e2 49 88 3e
       0.17378204 0.17380822 0.21021912 0.26618868
000270 db 3e 80 3e 1c 27 80 3e 9f e0 63 bd 42 50 78 3e
       0.25047955 0.25029838 -0.055634137 0.24249366
000280 39 0a 6a 3e 9c cc a2 3e 0c d8 f2 bd 40 b1 90 3e
       0.22855462 0.3179673 -0.11857614 0.2826023
000290 65 53 50 3c 0b d1 9d bc 68 d5 84 3d f0 1a d1 3d
       0.012715195 -0.019264719 0.064860165 0.10210216
0002a0 95 e7 1a 3f 29 d0 7f be 95 2d 2e 3e 83 b4 30 3d
       0.60509616 -0.2498175 0.17009576 0.0431409
0002b0 c0 8f 83 3e ff 65 dd bd 47 b6 d0 bd 99 5c 9e 3e
       0.2569561 -0.1081047 -0.10191017 0.3093002
0002c0 f1 9b 58 be fb 24 d7 3e 76 c8 0e 3e 07 a6 27 bd
       -0.21153237 0.420204 0.13943657 -0.04092982
0002d0 28 f8 2e 3e 36 59 06 be e4 a9 54 3d 5b ef 78 bc
       0.17086852 -0.13119969 0.051919833 -0.015193786
0002e0 0d 2b 38 3c ed d2 95 be 47 4c ea 3c 51 e0 ad 3d
       0.011240733 -0.29262486 0.028600825 0.084900506
0002f0 4f 17 76 bd 0a e6 f2 be 51 4f 41 3d b2 88 c0 3d
       -0.060080823 -0.4744113 0.047194783 0.094010726
000300 6f e7 77 3e 9d 8c 21 bd 15 1f 9b bd 3e 74 79 be
       0.24209379 -0.03944074 -0.07574288 -0.24360749
000310 98 bb 88 3d ce 92 75 be 21 17 80 be 92 b2 1d 3e
       0.06676406 -0.23981783 -0.25017646 0.1540015
000320 77 36 22 be be bf b8 bd 9f 0c 5d bd 13 20 a5 be
       -0.15841089 -0.09020947 -0.053967115 -0.32251033
000330 7e f1 92 3e 87 26 d4 be 47 fc 2b bd 33 86 ef 3c
       0.2869987 -0.41435644 -0.041988637 0.029238796
000340 18 ad 2b bd da 0b 4c be 7e c6 4f 3e ed 1f 5a be
       -0.041913122 -0.19926396 0.20290563 -0.21301241
000350 91 6d c6 3c ad cb 01 3e dc fb c8 bd 87 8a cf bd
       0.024222167 0.12675352 -0.09813663 -0.10133844
000360 25 86 11 be 94 d0 1e 3c 11 2d a1 be 51 7d 95 bc
       -0.14211328 0.009693284 -0.31479695 -0.018248232
000370 0a b9 08 be 51 b6 e7 3d 85 26 c6 3d bb 22 39 bd
       -0.13351837 0.11314071 0.09675316 -0.045199137
000380 f0 e6 70 be c7 09 87 bd 8a 91 33 3e 95 18 2e 3d
       -0.23525596 -0.06593662 0.17535987 0.042503912
000390 b6 34 45 bd 93 2a ad be 05 74 a5 3d ff 4e fb 3d
       -0.048145972 -0.33821544 0.080787696 0.12270927
0003a0 d1 99 57 bd b5 7a 3e 3e b8 d4 23 3a fa 52 9d 3d
       -0.052636925 0.18601497 0.0006249654 0.07681842
0003b0 66 cf e7 bd 99 7d 43 be 51 e5 07 3d 16 a3 09 3e
       -0.11318855 -0.1909088 0.033177678 0.13441119
0003c0 36 20 03 3e 2f ca 2c 3e 1e 82 10 3e ea e1 04 3e
       0.12805256 0.16874002 0.14112136 0.12976804
0003d0 d4 51 3d be 53 6d 33 be 10 92 32 3e 73 5e 66 3e
       -0.18488246 -0.17522173 0.17438531 0.22496967
0003e0 64 fc 50 be a5 01 d2 be db 63 6d bd bc 94 66 3e
       -0.2040878 -0.4101688 -0.057956558 0.22517675
0003f0 c6 b7 81 bd 89 5c d4 bd 70 9d cc bd 75 75 38 3e
       -0.0633388 -0.10369212 -0.09990966 0.18013556

lstm.weight_hh_l1 f4 [256, 64]
000000 dd e3 17 3e 4b 70 4d 3e 14 1a 40 be c2 dc 87 bc
       0.14833017 0.20062368 -0.18759948 -0.016584758
000010 38 21 37 bd d1 cf 44 be 44 1c c5 bd 2b c2 3b bc
       -0.044709414 -0.192199 -0.09624532 -0.0114598675
000020 7b b7 aa 3c 35 e7 fa 3d 3b e8 f3 3d 19 5e 69 be
       0.020839443 0.122511305 0.11909529 -0.22789802
000030 0c 7c d5 bd 12 74 a1 bd fc 3d 47 be bd 10 04 3d
       -0.10424051 -0.07883467 -0.19457239 0.032242525
000040 65 97 2f 3e a7 4e 64 bd 2b df 0a be 07 2a 02 3d
       0.17147596 -0.05573907 -0.13561694 0.03177836
000050 c3 e8 ae 3d 9f 51 30 be dc ee 99 3e da bd 5f be
       0.085404895 -0.17218636 0.30065048 -0.21849766
000060 59 48 d0 bd 31 1f 7d 3e aa ae e2 bb b7 ea c2 bd
       -0.10170049 0.2471893 -0.0069177942 -0.095174246
000070 64 d1 36 3e 58 51 cb 3d 94 73 66 3d 30 49 cb bd
       0.17853314 0.099276245 0.056262568 -0.09926069
000080 f8 dd 27 be b6 f0 0d be e1 b5 61 3d 49 73 e8 3c
       -0.16393268 -0.13861355 0.055105094 0.028375285
000090 80 b1 3f bd 05 b0 df 3a 61 22 5a bd ea a9 05 be
       -0.046800137 0.0017066008 -0.053255443 -0.13053098
0000a0 fb 5c ac bc 12 03 1f be fa e9 7e 3c 4d 12 0c 3e
       -0.02104043 -0.15528515 0.015558714 0.13678856
0000b0 09 20 28 be 3e d7 12 bd c7 ad f0 bd 75 14 09 be
       -0.1641847 -0.035849802 -0.117518954 -0.1338671
0000c0 35 0e 83 bc 28 4e 1c 3d d6 94 91 3e e3 d8 f0 3d
       -0.015997985 0.038160473 0.28433865 0.11760118
0000d0 53 07 09 be 59 27 e6 3c b1 fd 5a 3d be 85 21 be
       -0.133817 0.028094934 0.053464595 -0.15773675
0000e0 7b bb 83 bd f5 22 1d bd bc 6f bd bd 23 04 dd bc
       -0.064322434 -0.038363416 -0.09249827 -0.026979512
0000f0 75 1d 43 3e 13 f5 da 3d 3f 03 32 bb f3 b4 2f 3e
       0.19054206 0.106912754 -0.002716258 0.1715887
000100 39 b6 35 bc 9f a1 9c bd cb 43 81 3d 0a 97 72 3d
       -0.011090809 -0.07648014 0.063117586 0.059226073
000110 26 1e e4 bb b8 95 8e 3d d4 2e f0 3c 7c 19 ed 3c
       -0.006961602 0.0696215 0.029319204 0.028942816
000120 f8 34 ab bd 74 c2 6e 3d 1e a4 f4 bd 04 76 02 3e
       -0.08359712 0.058290914 -0.11945365 0.12740332
000130 6c 94 f1 bd ba 38 8c bd 22 ef 87 3d c2 58 56 bd
       -0.11795887 -0.06846757 0.06637408 -0.05233074
000140 0e 64 a4 bd da 0a 1f 3e 99 16 17 3e d3 9e 1a be
       -0.080268964 0.15531483 0.14754714 -0.15099649
000150 ee 70 fc bb 84 ff 93 3b 9d de 06 be 57 1b 90 3d
       -0.007703892 0.004516544 -0.13170858 0.07036465
000160 2e 60 0b 3d 68 0a 2e 3d 3b 4f 26 be ad 16 10 3e
       0.03402727 0.042490393 -0.16241162 0.1407115
000170 f3 fb 09 be b5 ba 84 3d 7f 7d 6d bd a0 2e 0d be
       -0.13475017 0.06480924 -0.05798101 -0.13787317
000180 fa 31 76 3d 5a e9 c8 38 a9 bc 2c 3d 40 ac 28 3c
       0.060106255 9.580208e-05 0.042172108 0.010294974
000190 eb a6 2a 3d ca 10 07 be 71 e6 97 bd 70 fb 1a 3c
       0.04166309 -0.13189998 -0.07417 0.009459361
0001a0 8e 46 ac 3d fc 18 f1 3d 21 5d 17 bc 32 ed 8d bd
       0.08411895 0.117723435 -0.009238512 -0.06930007
0001b0 2b 19 1e bd 43 6d 9e bd 0e a2 4f bd e1 6f 88 ba
       -0.03859822 -0.07735684 -0.050691657 -0.0010409319
0001c0 21 fe 13 3d 73 a5 1d bc 5c e9 7c bd 1e 60 9e bc
       0.036131028 -0.009621966 -0.061745986 -0.019332942
0001d0 3f af 3c bd 07 10 fd bd 41 d1 37 be 49 09 82 bd
       -0.046065565 -0.123565726 -0.17950918 -0.06349427
0001e0 3a 32 58 bd 73 2d f0 bd 3d 50 12 3e c1 41 c7 3d
       -0.052782275 -0.11727419 0.14288421 0.097293384
0001f0 59 8c 81 bc 8e 62 2b be 82 03 8d bc c4 74 0f 3d
       -0.015813993 -0.16736814 -0.017213587 0.035023466
000200 75 a9 e3 3d c1 fe 98 3d 08 e2 db 3d 2e 18 8b 3c
       0.11116306 0.074704655 0.107364714 0.016979303
000210 30 f7 36 bc 84 cd e8 bc cc 00 05 be 3b 86 41 bd
       -0.0111673325 -0.02841831 -0.12988585 -0.047247153
000220 ce d2 6c 3d 31 54 ae 3e 48 77 c6 3d 4d 1e 2b be
       0.057818227 0.34048608 0.0969072 -0.16710778
000230 08 2a b2 3d ec d1 5f bd 06 07 e4 3d 23 38 14 3d
       0.08699423 -0.054643556 0.11134152 0.03618635
000240 82 c5 d5 3d 3d 33 6a 3d 6d 54 38 bc a4 d6 ec bd
       0.10438062 0.05717777 -0.011250597 -0.11564377
000250 2f bd 76 bd 95 b1 23 bd dc e5 9d be c8 73 d0 bc
       -0.060239013 -0.039964277 -0.3083943 -0.025445834
000260 de 0f 74 3d 1f a9 64 be d6 1f 01 bd 75 35 85 bc
       0.059585445 -0.2233014 -0.0315245 -0.016260842
000270 b3 ea 8c 3d 52 5e 03 be cc c0 73 3d 7d 7d 92 3d
       0.06880703 -0.12828949 0.059510037 0.07152841
000280 ab f9 d7 3c 51 c8 15 be a7 93 99 bc 5e 02 3f bd
       0.026364168 -0.14627196 -0.018747164 -0.046633117
000290 f5 3e 7f bd 57 af 47 3d 12 f9 18 3c bb 33 f0 bc
       -0.0623159 0.0487512 0.009336727 -0.029321542
0002a0 31 41 83 bd b6 2c c8 3e 07 16 63 3c 7d bb 4f be
       -0.06408919 0.39096612 0.013860232 -0.20286365
0002b0 15 16 5a 3b 90 0d 59 3c 04 99 6f 3d db 24 94 bc
       0.0033277322 0.013247862 0.058495536 -0.01808398
0002c0 f6 95 c6 3d 88 e5 c6 3c 0c 59 c5 3e 0e f9 a5 bd
       0.096965715 0.02427937 0.385445 -0.08104144
0002d0 56 ca 6c bd ef 79 90 3d fe 1b 43 3d cb 21 1a 3e
       -0.05781015 0.07054507 0.047634117 0.15051953
0002e0 f2 e9 84 3b 38 ae ca 3d 98 45 f3 3d 55 36 25 3e
       0.0040562088 0.09896511 0.11878508 0.16134007
0002f0 12 ea 60 be 44 9b 2a 3c 56 57 ab bd bb 7f 2e bc
       -0.2196429 0.010412995 -0.083662674 -0.0106505705
000300 bd 08 e6 bd bb d1 05 bd 28 1b 14 be ea af dd 3d
       -0.112321354 -0.032670718 -0.14463484 0.108245686
000310 34 55 40 3c d7 60 2c 3d 1f d8 50 bc 79 ab bc 3d
       0.011739064 0.04208454 -0.01274684 0.09212393
000320 0b 92 e4 bd 9f 62 6a 3e e2 d2 2c 3e 36 3a e9 bd
       -0.11160668 0.22889183 0.1687732 -0.11388056
000330 0d d9 3b 3e a5 07 71 3d 4c e7 b0 bc fd e8 9a 3d
       0.18344517 0.05884518 -0.021594666 0.0756397
000340 53 41 ed 3c 43 a1 5c bd 17 a2 07 bd ed a0 05 3e
       0.028961813 -0.05386473 -0.033113565 0.1304967
000350 e4 92 85 bd 47 bc 21 3d 4d 2b d1 3c b9 24 bc bc
       -0.06522158 0.039486196 0.025533343 -0.02296673
000360 76 06 be bc 11 bf 9e 3c 4e e3 09 3e 89 cd bb bd
       -0.02319644 0.019378217 0.13465616 -0.09170062
000370 f3 67 a3 3e ea e4 28 3d 42 86 d9 3d fd ed af bd
       0.31915244 0.041233934 0.10621311 -0.085903145
000380 26 98 9e bc b9 47 0b 3d 15 45 81 bd a0 27 86 3d
       -0.01935966 0.034003947 -0.063120045 0.065505266
000390 f3 a2 1d 3d 3d 5c a5 3d bb 6d 9f 3d c4 d5 a8 3d
       0.03848548 0.08074234 0.07784601 0.082438976
0003a0 1c c5 b5 3b 9e 95 59 3e 06 7b 74 bb f3 d3 36 be
       0.005547179 0.2124848 -0.0037304773 -0.1785429
0003b0 25 48 19 bd 9b ee f9 3c 1f 0a 7f bd 02 2d ab bd
       -0.037422318 0.030509284 -0.06226551 -0.08358194
0003c0 5d 19 86 3d b8 5c 01 be 0b 24 80 3e e3 16 02 3d
       0.065478064 -0.12633026 0.250275 0.031760108
0003d0 d9 85 c6 bb 6a 2f 93 3b b3 15 79 bd 1a 8b f2 3b
       -0.0060584364 0.004491736 -0.06081171 0.007401836
0003e0 39 16 06 be 06 b1 3a bd df 83 ad 3d 51 45 52 bd
       -0.13094415 -0.04557898 0.08472418 -0.051335637
0003f0 86 be ee 3c 12 56 f6 ba e4 41 90 bd 9b a5 e9 3d
       0.029143583 -0.0018793961 -0.07043818 0.1140854

lstm.bias_ih_l1 f4 [256]
000000 80 12 81 be 1d 2a e0 bb 44 bc ad bd 66 89 d3 bd
       -0.25209427 -0.006840958 -0.084831744 -0.10328941
000010 e7 52 7f bb ad db 92 3d b6 18 91 bd 0a c9 8a be
       -0.0038959326 0.07170806 -0.07084791 -0.27106506
000020 35 56 38 be 28 0d 84 be ce 51 05 bd d8 27 f2 bc
       -0.18001635 -0.25791287 -0.03254872 -0.029560015
000030 dc 40 0f 3d 66 3f 41 be a0 83 40 be 00 8a 0b be
       0.034973964 -0.18871841 -0.18800211 -0.13626862
000040 0c af 82 be 48 50 a5 bc 8e 8f 79 be b7 92 80 be
       -0.25524175 -0.020179883 -0.24371168 -0.25111935
000050 ec 38 55 be 74 a8 0b be d6 dc 53 be 66 9d 57 bd
       -0.20822495 -0.13638479 -0.20689711 -0.05264034
000060 12 ef ed bd e8 fd b6 bd 59 b0 e0 bd a4 af f9 bd
       -0.11617865 -0.089351475 -0.10971136 -0.12191704
000070 0d 68 d4 bd 45 50 38 be a0 80 0d be 6a 78 92 bb
       -0.103714086 -0.1799937 -0.13818598 -0.004469921
000080 83 58 8e 3c ce 29 18 3d d7 02 18 3d 5b b3 20 be
       0.01737619 0.037149243 0.037112083 -0.15693419
000090 c7 a6 34 bc 35 2d 55 be be 73 ba bd 88 8c 59 be
       -0.011026091 -0.20818026 -0.09104107 -0.21245015
0000a0 6a b0 09 3e cf 0a 86 3d ff e5 18 be 80 44 9e be
       0.13446203 0.0654503 -0.14931487 -0.30911636
0000b0 05 c5 3e be 7a bf 98 bd d7 75 81 be 0f be 5a be
       -0.18629844 -0.07458396 -0.25285217 -0.21361564
0000c0 bb 9e b9 3d 30 f2 73 be b9 60 76 bd ea 0a ae bd
       0.090634786 -0.23822856 -0.060150836 -0.084981754
0000d0 69 9f 1f 3c 71 f7 67 bd 4b c5 cd 3c 86 9e 44 be
       0.009742596 -0.056632463 0.02511849 -0.19201097
0000e0 da 1a 07 be c7 a4 21 be f5 63 82 bd b2 15 41 bd
       -0.13193837 -0.15785514 -0.063667215 -0.04713983
0000f0 d9 87 59 be af 61 ac bd 9d 48 bc bd 38 65 5a 3a
       -0.21243228 -0.08417069 -0.091935374 0.0008331123
000100 84 5f 9e bd 36 ac 1e bd 6f f5 59 bd 68 af 06 3e
       -0.07733062 -0.038738452 -0.05321258 0.1315285
000110 de fb 14 3e f5 43 bc 3d 0e 6a 52 3e e5 2f f1 3d
       0.14549205 0.09192649 0.20548269 0.11776713
000120 27 6b a0 bd f9 53 18 3e 6c 46 1c bc 79 51 1b 3d
       -0.07832938 0.14875783 -0.009538274 0.037919495
000130 45 15 27 3e 1b cd 45 3d e0 f8 1a be a9 e5 44 3e
       0.16316707 0.048291307 -0.15134001 0.19228233
000140 bd db 31 be db 6e 32 3e 57 35 bd bd b5 7c ca 3a
       -0.1736898 0.174251 -0.092386894 0.0015448543
000150 d2 25 3b 3c 18 d4 16 be ef 45 6d 3e 3e 63 b4 3d
       0.011422591 -0.14729345 0.23171209 0.088079914
000160 5f d6 a2 bc 39 18 45 be 87 98 f2 b9 b4 a3 d1 bd
       -0.01987761 -0.19247521 -0.0004627148 -0.10236302
000170 44 b1 7f 3e 8d 39 02 3e 17 35 dc bd d2 f8 82 3d
       0.24969965 0.12717266 -0.107523136 0.06395115
000180 7d 90 b2 3b 35 11 3e 3e 9b 41 f7 bd 53 60 57 3e
       0.0054493533 0.18561251 -0.1207306 0.21032839
000190 8d bc 62 3d 45 e2 42 3e d5 60 2b 3e 18 50 83 3d
       0.055355597 0.19031627 0.16736157 0.06411761
0001a0 3f 64 d9 3d 8e 6a 53 3d e9 ce 96 3e 5b 95 24 3e
       0.106148235 0.05161529 0.29454735 0.160726
0001b0 fb 83 f5 3c af 02 57 bc 8e b3 92 3e 85 4b c0 bc
       0.02997016 -0.013123198 0.28652614 -0.02347351
0001c0 b3 30 8b 3d 14 93 a5 bd 1d 0a c6 bd 03 8d c4 3b
       0.06796398 -0.080846936 -0.09669898 0.005998255
0001d0 07 75 ed 3c cb a0 8c 3d 49 1a 27 3e 89 6e 2b 3d
       0.028986467 0.06866606 0.1631862 0.04185346
0001e0 a2 30 b6 3c 72 96 d0 3d ca 66 11 3e 0d a6 9a 3d
       0.022239987 0.10184945 0.14199367 0.07551203
0001f0 8e 60 8e bd 2b 35 90 bd b6 a7 2a 3b fe 29 b7 bc
       -0.0695201 -0.07041391 0.0026039905 -0.02235889
000200 8a 38 bc 3d 2f 88 2d bd bb 66 b5 3d 30 e6 08 3d
       0.091904715 -0.042366203 0.08857485 0.03342265
000210 d5 45 1e bd 6c 9e d0 bd 05 43 e2 bd 93 d7 a2 3c
       -0.038640816 -0.101864666 -0.11047939 0.019878184
000220 6b 47 5c 3d 26 91 11 bd 14 ba 1a bd 6e 0e 8b 3b
       0.053779047 -0.035538815 -0.037775114 0.0042436635
000230 f8 53 6b bd 70 cb d1 3d ac e1 42 bd 4c 94 d7 3c
       -0.057453126 0.10243881 -0.0475785 0.02631583
000240 40 df 0f 3d ce 4a 13 3e 0d 08 03 3e 26 f2 b7 bd
       0.035125017 0.14384004 0.1279604 -0.08981733
000250 b7 1e b4 bd 89 8b 69 bd 60 27 ef bb 40 7d e5 bd
       -0.08794921 -0.057017837 -0.007298395 -0.1120553
000260 58 f4 31 3d a6 ff 19 bd ff 4b 6c bd 85 ef 74 ba
       0.043445915 -0.03759732 -0.057689663 -0.00093435525
000270 46 0b 9b bd 73 c4 e3 3c 9e b9 aa 3d ea af 94 bd
       -0.075705096 0.027803635 0.08336185 -0.072601154
000280 84 93 c1 3d 9e 16 12 be 74 a5 0f 3d a8 9f 50 3d
       0.094519645 -0.1426644 0.035069898 0.05093351
000290 fb c8 a5 3c 03 ce 5e bd b7 92 80 3d d5 09 e2 3d
       0.020237437 -0.054395687 0.06277984 0.110370316
0002a0 0f 95 ad 3d c7 f8 10 be 59 f1 ab bb ef b3 9b bd
       0.08475696 -0.14157401 -0.0052472767 -0.07602679
0002b0 c3 36 7d 3c e4 f0 ca bd 22 05 46 3d cb 0b 28 3d
       0.015454951 -0.099092275 0.04834474 0.04102687
0002c0 16 59 2a bc d4 26 20 3d 2c f1 90 bd 6c 7b 98 bd
       -0.010397216 0.03909953 -0.0707725 -0.07445416
0002d0 c0 5e 26 be 6c 1a b1 3a 54 b0 e4 3c ff d6 fe 3d
       -0.16247082 0.0013511903 0.027916111 0.12443351
0002e0 d5 8c 7a bd 08 d9 65 bd 85 03 47 bd 56 9f 7a bd
       -0.061169464 -0.05611518 -0.04858734 -0.06118711
0002f0 fc 5c ae bd fa 7c 83 bd 1e bb b4 3d c3 81 a9 bd
       -0.08513829 -0.06420322 0.08824752 -0.08276703
000300 b9 88 e5 bd 9f bc f8 bd 29 c2 25 be 4b 67 8d bd
       -0.112077184 -0.121453516 -0.16187347 -0.06904467
000310 8e e6 34 3d 12 fb a1 3d 5d 70 84 3c bc 6c 35 bd
       0.044165187 0.07909216 0.01616686 -0.04429315
000320 aa 3e c9 bd 64 7d 8f 3c 8b d7 1e be 42 a2 97 bd
       -0.09826405 0.017515846 -0.1551191 -0.07403995
000330 8a c0 15 3e 19 58 a1 bd 41 fb 49 be ac 6c 50 3d
       0.14624229 -0.078781314 -0.19724752 0.050884888
000340 08 23 0c be 74 ba 5f 3d 9b 01 68 bc 56 02 c9 bd
       -0.13685238 0.054621175 -0.014160539 -0.09814899
000350 c4 f4 46 be 74 84 2c be 6f 31 5e 3d 8a db 8c 3d
       -0.19429308 -0.16847402 0.054246362 0.06877811
000360 89 ad 28 be ff 60 87 bd 1b c6 02 bc ba b3 7e be
       -0.16472448 -0.066102974 -0.007981802 -0.24873248
000370 d2 e7 54 3e 0f 3a 01 be 8b 89 a6 bc 6f 79 e3 3d
       0.20791557 -0.12619804 -0.020329257 0.11107146
000380 1d ca 82 3b 61 79 ff bd f8 8f aa bb 75 dd 6c 3c
       0.003991379 -0.12474323 -0.0052051507 0.014457096
000390 e0 6e 5a 3e 41 8d c0 3d 32 47 fd bd 78 52 b9 bb
       0.21331358 0.09401942 -0.12367095 -0.005655583
0003a0 1c 39 a9 bd 7b f1 e8 bb e1 11 b9 bd 92 42 a8 bd
       -0.08262846 -0.007108865 -0.09036613 -0.08215822
0003b0 cf f6 e2 bd 87 28 a1 3c ac 69 40 be a3 c0 29 be
       -0.11082231 0.019672645 -0.1879031 -0.16577391
0003c0 5e f0 38 3d 01 41 47 be 5a 16 a2 bd 3b 9a e6 bd
       0.045151107 -0.19458391 -0.079144195 -0.11259886
0003d0 82 e1 92 3d 3c 05 17 3d 34 c8 9f bd 04 3f 30 be
       0.071719185 0.036870226 -0.078018576 -0.17211539
0003e0 5b e8 f2 bd 21 1a 8a be 51 d1 0e be e2 1d cc bd
       -0.118607245 -0.2697306 -0.13947035 -0.09966637
0003f0 0b 21 3f be 24 43 8d 3c 5c de d5 3c 26 29 be bd
       -0.18664949 0.01724393 0.026107006 -0.09285192
